cifar_net.pth (torch, 251401 bytes, 10 tensors)

conv1.weight f4 [6, 3, 5, 5]
00000000: c8db c8bb 6c2a 55bd bda8 9ebe 787c 13be
00000010: a1d4 15bd ef8b c63e 4edc de3d e70c fbbd
00000020: 1b59 e9bd eedd 3a3e bf8e 223c 8718 d43e
00000030: e34e b0bc b3f9 77bd 4ce3 103e 676c 9b3d
00000040: 460a 0d3e 6962 113e 07e0 473e cda2 40bc
00000050: cab1 eebc 82ec 85bd 6cdf 0b3e e2b9 733e
00000060: 0e3d ad39 d3de 033e 4d70 ecbd 3c34 b4be
00000070: 2d03 8f3d 7beb e33c cdca c83e 6c60 343e
00000080: a906 e0bd 3997 9c3c 1331 bb3e e8d8 d43d
00000090: a1c9 933e 0d36 06bd fe5e 14be a135 943e
000000a0: d6ed 7dbc 0a28 363e 74d1 e63d 8881 983e
000000b0: c062 573e 7321 66bc 5405 bdbd 93c0 f73d
000000c0: 92d9 9a3e b467 db3d 031b 4e3d 6338 cbbd
000000d0: 6dd8 9fbe f0f1 37be ff5f 8d3b 1655 773e
000000e0: f40c 293e 15d6 9fbe 4053 0abe 1c32 17bd
000000f0: 02b2 18be c8d3 623e c7d0 17be 220e 8bbe
00000100: 823d 2dbe 22d0 51be f66d 1abe ce27 a2bd
00000110: e0f6 0bbe 1684 a4be bd07 23be ea7c 3dbe
00000120: 28f2 8d3d 5a68 bcbb bfc1 a0be 5e57 b0bd
00000130: f9c4 e2bd 598a 58be 2aef 25be 9022 19be
00000140: d02f 88bd 213c 023e 284e 42bd 6a45 c63d
00000150: 9c35 7bbd 24a9 41bd 8ef0 213d 79fc e5bc
00000160: 857b eb3c d8b4 0fbe ad83 87bd af38 76bc
00000170: d6ad 8cbd aea7 43bc 75e4 1abc 830b 79bd
00000180: 2e9e 84bd 5968 ffbc ef15 273d 91af 9cbd
00000190: 3b6b 66be b189 00be 94a7 393d 6b71 0bbd
000001a0: 1df6 0fbe 6bb0 ccbd 3f11 58bb 4d89 583d
000001b0: 75e8 f53c 9588 edbc 45e0 11be 4ceb e7bc
000001c0: ff7c 73bc 8cc7 183e a1f5 e63d 1f17 96bd
000001d0: 8321 b7bd 6032 313c 9666 c43d 754e f9bb
000001e0: 96a8 63bc 8118 4ebd 3895 59bd b4d9 a3bd
000001f0: 2923 74bd 5fea 05bd 40f8 433e 88c7 303e
00000200: 4a88 523e e130 c93d 1277 bc3d e55d 303e
00000210: 2a25 c63e a819 403e 4c03 7c3e 0643 ef3d
00000220: a233 dc3d 1c49 a13e 65ea cd3d 9513 833d
00000230: 68df 433d a059 333e 3305 423e f263 263e
00000240: 8994 b7bc be6d 4a3d a603 d53d b148 4d3e
00000250: 18b0 fb3d 38cc a73a 9186 dd3e 7429 c63e
00000260: 07c7 a23e 6192 d63e bb43 973e 0a50 d53e
00000270: df92 cb3e cb1c d03e 3281 833e 9e23 773e
00000280: daf8 693e 430e 713e 9f70 673e 0755 e63d
00000290: 5b4d 253e 28e9 d83d 6565 8abc b1c6 a5bc
000002a0: d513 d73c 9478 fcbd 6e6b 92be 66c9 47bd
000002b0: 8c36 78bd 0432 9cbe 8752 66be e52b 36be
000002c0: b31c cfbd aaea 9fbd 787a 37be ea21 07be
000002d0: 5a12 5bbe 6dba 51be 6f47 85be 561f 38be
000002e0: afb9 93bd a050 44be 3e86 e0bd 31fd 0bbe
000002f0: 61b5 38be 819a 79be 2903 87bd 6e96 09be
00000300: 3a1c dabd bf7b 31be e26f 92bc e318 c5bc
00000310: b1a7 ccbd 049d c8bd 0ba0 993d 10e6 8c3d
00000320: 0171 b7bd 3691 0ebe bfd8 2ebd f67f ddbd
00000330: 00e3 cfbd 226c 17be 4fd4 80be c077 1dbe
00000340: 4e2d 68bd 241c a0bd 7c55 a2bd ee55 58be
00000350: 54d7 3bbe f466 fcbd e68f 06bd 1cc7 0cbd
00000360: 7dac f1bc 3a4e 703c 2240 50bc a080 313e
00000370: f8a9 663e dfab cf3d d3c5 903d 0c33 8b3e
00000380: 5d18 303e 14aa 70bd 8e05 483d 1990 133e
00000390: 5b7e 423e a873 113e cff0 54bd 37c0 1bbd
000003a0: 1791 39bd 344e cabd 7404 bd3e bf43 1b3e
000003b0: ac28 3c3e 48b4 71bd 088a b2be a96a 103e
000003c0: ff82 863e 3a2d 813e db8d aebc 588e eabe
000003d0: a306 c43c ed7b a43e 0a78 773e 50c5 d1bd
000003e0: 51aa bbbe d74c 15bd 6e8d 25be 0a08 4fbd
000003f0: 2fa6 36be be2f cbbd a934 8b3d 0b6c b03d
-0.0061297156 -0.05204241 -0.30988112 -0.1440295 -0.03657973 0.38778636 0.108818635 -0.1225832
-0.11393949 0.18248722 0.009921729 0.41424963 -0.021521991 -0.060540866 0.14149207 0.075890355
0.1377345 0.14197697 0.19519053 -0.011757565 -0.02913751 -0.06539251 0.13659447 0.23801377
0.0003304262 0.1287797 -0.11544857 -0.35196102 0.069830276 0.027822247 0.39217225 0.17614907
-0.1093877 0.019115077 0.36560878 0.10392934 0.28864768 -0.03276639 -0.14489362 0.28947166
-0.015498599 0.17788711 0.11270419 0.29786325 0.21033764 -0.014046061 -0.09229532 0.120972775
0.30244118 0.10713139 0.05031873 -0.09922864 -0.31219807 -0.17963386 0.004314422 0.24153551
0.16508847 -0.3121802 -0.1350832 -0.036913022 -0.14911655 0.221511 -0.14825736 -0.2715922
-0.16917995 -0.20489553 -0.1508101 -0.079177484 -0.13668394 -0.32132024 -0.1592092 -0.18504682
0.06930953 -0.0057497444 -0.31397817 -0.08610414 -0.11072726 -0.21146525 -0.16204515 -0.14954591
-0.066497445 0.1271825 -0.047437817 0.096812084 -0.061330423 -0.047280446 0.03953605 -0.02807449
0.028745422 -0.1403383 -0.06616912 -0.015028163 -0.06869094 -0.011941833 -0.009453882 -0.060801994
-0.06475483 -0.031177687 0.040792402 -0.07650674 -0.22501843 -0.12552525 0.04532583 -0.03404371
-0.14058729 -0.099945866 -0.0032969264 0.052865315 0.03001807 -0.028995791 -0.14245708 -0.02831044
-0.014861344 0.14919871 0.11277319 -0.07328629 -0.08941939 0.010815233 0.09589879 -0.0076082298
-0.0138951745 -0.050316337 -0.05312082 -0.08000508 -0.059603844 -0.032694217 0.19137669 0.17263615
0.20559803 0.09823776 0.09202398 0.17223318 0.3870023 0.18759787 0.24610633 0.116827056
0.10752036 0.3150109 0.10054473 0.06400219 0.04782048 0.17514658 0.18947296 0.16249064
-0.022409694 0.049421065 0.104010865 0.20047261 0.122894466 0.0012801951 0.4326673 0.387035
0.3179247 0.41908553 0.29543862 0.41662627 0.3976049 0.40646967 0.25684506 0.2413468
0.22848836 0.23540597 0.22601555 0.112466864 0.1614279 0.10591346 -0.016894052 -0.020236345
0.026254574 -0.12327686 -0.28597587 -0.048776053 -0.060598895 -0.3050691 -0.22492419 -0.17790182
-0.10112896 -0.078084305 -0.17917812 -0.13196531 -0.2139372 -0.20481272 -0.26031062 -0.17980704
-0.07213151 -0.19171381 -0.10963105 -0.13670804 -0.1803794 -0.24375345 -0.065923996 -0.1343629
-0.10649915 -0.17332362 -0.017875616 -0.024059718 -0.09992922 -0.09795573 0.07501229 0.068798184
-0.08957101 -0.13922581 -0.042687174 -0.10815422 -0.10150719 -0.14787343 -0.2516198 -0.15377712
-0.05668383 -0.078178674 -0.07926461 -0.2112653 -0.1834386 -0.12324324 -0.032852076 -0.034369573
-0.029501194 0.014667088 -0.012710603 0.17334223 0.22525775 0.10140204 0.07068982 0.27187383
0.17196794 -0.05875595 0.048833422 0.14410438 0.18993513 0.14204276 -0.051987465 -0.038025107
-0.045304384 -0.09878197 0.3691746 0.15162562 0.1837489 -0.05900982 -0.34870934 0.14103188
0.26271817 0.25229818 -0.021307876 -0.45811725 0.023928946 0.32125798 0.24166885 -0.102427125
-0.3665338 -0.036450233 -0.16167232 -0.050544776 -0.17836832 -0.099212155 0.067971535 0.086143576

conv1.bias f4 [6]
00000000: b74f 7dbb 7fe0 dd3e 405b 2abf be43 17be
00000010: 7c1f c2be a1f6 a7be
-0.003865225 0.4333534 -0.66545486 -0.14771935 -0.37914646 -0.3280535

conv2.weight f4 [16, 6, 5, 5]
00000000: d72e 51bb c2ed 9abd f646 c2bd 3045 d03c
00000010: 8e8f 24bd 4c68 31ba 35c5 f6bd a3bc 8c3d
00000020: dd8d 083e ea2f 92bc df82 acbd fd04 65bd
00000030: 0969 0d3e c874 3bbc 9052 e6bd 51f4 523b
00000040: 5d6f cb3d 11aa 22bc 2ea0 35be 2fea 153b
00000050: 4c01 153d 3b88 c93c 57a4 5abd 7da1 703a
00000060: 7b8d 1b3e e7f0 1bbe 596a 21bd a0e0 1dbe
00000070: abd0 1fbe 43f2 8c3c bee6 60be 00be 8cbe
00000080: 5487 5fbe 022f 7ebc ef97 8a3e ee1f b6be
00000090: 44f7 50be 5c92 08be c5dd 8b3e 9961 b73e
000000a0: 73aa abbe e12c 0ebe a982 8b3d 1e72 843e
000000b0: 30ca 8a3e 8f47 5cbe cf11 afb7 b410 2f3e
000000c0: f816 6c3e a958 5d3e 1fd4 acbd 17f2 79bd
000000d0: e5a1 983d 5a12 003e 057d 9dbd 5836 303d
000000e0: ed51 4abb 17cc 293e b35b 6f3c 293c c9bd
000000f0: 1e03 f73c 654e 163e 00c4 80bd fbc7 21be
00000100: 8cf8 8ebd 5cba 213e 54d1 9c3d 1b96 60bd
00000110: e538 813c fe6f 74bd 0f7c 253e 0c96 413d
00000120: 461f 0bbe f898 513c 09a5 b1bd 56ab eabd
00000130: 6a52 ea3d 6157 3f3e 31c9 903d 07ec 37bd
00000140: 889b 4c3d 9bde 633e 31e9 16bd 2b5f 81be
00000150: 336c 2bbe 8e26 bd3d 3e89 803d cd58 60be
00000160: 8a49 7abe 7530 983d a8eb cf3c 4df2 0abd
00000170: 5a0d 77be c995 8abd 775e c53d 1771 e2bd
00000180: b882 22be efc6 34be 91cf 863d d035 42bd
00000190: 0635 15bd d518 1b3e 206e fb3d 718d 64bd
000001a0: 20e1 f2bc 7131 bd3d 65a4 113e e023 2cbd
000001b0: fe98 693b 8375 40bd 9403 b83c c960 18bc
000001c0: 836b 56bd f75e dfbc 58ac 0d3e 01ec 9b3d
000001d0: 89ed 10bd a173 623c 7bed fd3b 6abe 833d
000001e0: ad2a 4bbd 8c25 94bd 8e5a 643d 01c3 103d
000001f0: 6af8 ee3c 322b f5bd 5c20 cd3b 5b6f 593e
00000200: cfbe 183e 6ec2 dcbd 7602 203d d148 823b
00000210: e647 e63d 6102 17be 4d12 cdbd 3335 bc3c
00000220: 2ea8 a7bd 3140 f7bd fbf5 fdbd f30f 403d
00000230: 2a8b 20be 93e8 cdbd 2fe0 56bd ec1d 11bd
00000240: 8411 2bbc 3026 50bd cca6 07be 6e58 76bd
00000250: c69b b0bb 840d 37bd e6c9 0abe c322 09be
00000260: d9e3 27be bd6b 72be c04c 86be d95f 52bd
00000270: bfd8 1fbe 464d 23be ccdd 6bbe 706b 41be
00000280: 47af d2bd 9000 c0bd 7c2a 7ebe 7284 80be
00000290: ad71 94be fe71 debd 2136 20bd 9313 c2bd
000002a0: e77b 43be 605c 1bbe 4861 94bd 39a4 42be
000002b0: 80e7 f3bd 675c babd ffca 39be 9058 fd3d
000002c0: f942 70bd 4a00 71bb dd7d 52bd 91d5 333d
000002d0: de08 e33d e9e2 ebbc 0b04 08be a1b5 c5bd
000002e0: f55d 9e3d 92d6 843d 2b8a b03b d57f f0bc
000002f0: a44a 8bbd 074c fc3d 928b 2d3e ff6e ad3d
00000300: 505d f93d 527d 4e3d 9efd 123d 8484 1e3d
00000310: 437a 0c3e b29c 213e 4983 4f3e 3dc0 e73d
00000320: f23a 11bd 8ff6 38be b736 10be 52a7 3bbe
00000330: 60d9 84bd 77e2 a43d f268 bc3d 20f2 c83d
00000340: 92be 26bb 754c 6e3c b0fe 5a3e 433a a93e
00000350: 332c 833e 58cc 733e cc75 363e 89aa be3d
00000360: 11df c33d ed98 093e b787 873d 7ffc 31bd
00000370: de1c d73d 8010 d03d 7add 2c3d edef b8bd
00000380: ae30 0abe 1ee2 b33d fbeb 3ebc 7faa a6bd
00000390: d87e aebd 4f96 13be 75c1 383d 272a c9bc
000003a0: 4a29 cbbc fe62 d8bd da18 bcbd 9a4a bd3d
000003b0: e9ec a03c 3d04 0a3d 4ff7 97bd 31ad c0bb
000003c0: 47b5 e7bd f2ee 14bc e5c6 08be 48ac d5ba
000003d0: 43e9 f6bc 862d a0bd 77dc 16bd 08b2 93ba
000003e0: a62f 34bd bc08 953d d43a 2b3d 3b71 b33d
000003f0: fb94 3bbc 54f1 cf3c ea92 04bd 2f3b 9f3c
-0.0031918788 -0.0756488 -0.09486191 0.025423616 -0.040175967 -0.00067675556 -0.12049333 0.06871917
0.13335367 -0.017845113 -0.08423399 -0.05591296 0.13809599 -0.011441417 -0.11246216 0.003218908
0.0993335 -0.009928242 -0.17736885 0.002287518 0.03637819 0.024601093 -0.053379383 0.0009179337
0.1519069 -0.15228616 -0.03940806 -0.15417719 -0.15606944 0.017205363 -0.21963021 -0.27488708
-0.21828967 -0.015514137 0.2706904 -0.35571235 -0.20406824 -0.13337082 0.27317634 0.3581665
-0.3352848 -0.13884307 0.06812031 0.25868315 0.27107382 -0.21511672 -2.0869918e-05 0.17096215
0.23055637 0.21615852 -0.084388964 -0.06102189 0.07452754 0.12507 -0.07689861 0.043020576
-0.0030871585 0.1658176 0.014609265 -0.09825928 0.030152854 0.14678343 -0.06287384 -0.15798943
-0.06981 0.15793747 0.07657114 -0.05483065 0.0157742 -0.059677117 0.16160606 0.047262236
-0.13586149 0.012792818 -0.08674056 -0.11458461 0.114415005 0.18685676 0.07069624 -0.044902828
0.049953014 0.22252886 -0.036843482 -0.2526792 -0.16740493 0.09235869 0.06276177 -0.21908875
-0.24442115 0.074311174 0.025380924 -0.033922482 -0.24126187 -0.067668505 0.09637158 -0.110567264
-0.15870178 -0.17654012 0.06582559 -0.0474146 -0.03642752 0.15146191 0.12276864 -0.05579895
-0.029648364 0.09237946 0.14222868 -0.0420264 0.003564417 -0.046987068 0.022462644 -0.009300419
-0.052348625 -0.027266962 0.13835275 0.076133735 -0.03538278 0.013821513 0.007749257 0.06432803
-0.049601246 -0.07233724 0.055750422 0.03534222 0.029171187 -0.119711295 0.006259961 0.21233885
0.14916538 -0.10779272 0.039064847 0.0039759655 0.11244182 -0.14747001 -0.10013256 0.022974586
-0.081863746 -0.120727904 -0.12400433 0.04689021 -0.15678087 -0.10054126 -0.052459892 -0.035428926
-0.010441188 -0.05081767 -0.13247222 -0.060142927 -0.0053896634 -0.044690624 -0.1355358 -0.13392167
-0.1639551 -0.23673911 -0.2623043 -0.05136094 -0.15610026 -0.15947446 -0.23033828 -0.1888864
-0.10287338 -0.09375107 -0.24820894 -0.25101048 -0.28992978 -0.10861586 -0.03911412 -0.0947639
-0.19090234 -0.15171957 -0.072451174 -0.19007958 -0.119093895 -0.090996556 -0.18143843 0.123704076
-0.05865762 -0.0036773854 -0.051389564 0.043904845 0.11085676 -0.028794723 -0.13282792 -0.096537836
0.07732765 0.064862385 0.0053875647 -0.02935783 -0.06801346 0.123191886 0.16947773 0.084684364
0.12176001 0.050412484 0.0358864 0.038700595 0.13718514 0.15782431 0.20264925 0.113159634
-0.035456605 -0.18062805 -0.14083372 -0.18325546 -0.064867735 0.08051007 0.09199704 0.09811807
-0.0025443179 0.014544596 0.21386218 0.33052263 0.2561966 0.2380842 0.17818373 0.09309871
0.09564031 0.13437243 0.066176824 -0.04345369 0.10503553 0.10159397 0.042203404 -0.09030137
-0.13495132 0.08783363 -0.011652942 -0.08137988 -0.08520287 -0.14412807 0.04510637 -0.024556233
-0.024799962 -0.10565756 -0.091844276 0.09242745 0.019644218 0.03369545 -0.07420217 -0.005880021
-0.11313873 -0.009090172 -0.13357122 -0.0016301954 -0.030140525 -0.07821183 -0.036831345 -0.0011268267
-0.043990754 0.072770566 0.04180415 0.087618314 -0.011449094 0.025383629 -0.03236667 0.0194374

conv2.bias f4 [16]
00000000: c85c 453e d8c1 633e a46b 36bd c87c 643e
00000010: 4117 2ebe 1cbf d43e cba9 abbe 01c1 b0bd
00000020: 379c 463f 43e2 f6bd f55f 10bf d05b d7be
00000030: dbf7 66be 5b15 103f 5d29 5cbd 863a 2a3d
0.19273674 0.22241914 -0.044536248 0.22313225 -0.17001058 0.41552055 -0.3352798 -0.086305626
0.77582115 -0.12054875 -0.5639642 -0.42062235 -0.22555487 0.56282586 -0.053750385 0.04155972

fc1.weight f4 [120, 400]
00000000: 60a4 953d 316f b73c d684 b6bc f2e7 9abd
00000010: 6439 d2bb 09c7 793d cc43 1e3c 80d0 27bd
00000020: a6c5 06bc 5f5b 98bc efee 69bd ca34 83bc
00000030: 9cc9 1abd 2b9b 5dbd 0c3e 9dbc c660 6dbd
00000040: 0ae2 043d 3ffc c73c c454 053d 0a72 a73c
00000050: 2f57 cebc 4d82 04bd 0a9f 8cbc 3858 0abd
00000060: 0355 d3bc fc29 ccbc 393a 9e3a f24b febc
00000070: 3541 8cbc ffa7 21bc 93bd 9b3c 700b 6f3d
00000080: ab99 043d ce8a 333d ffe5 90bd 9b6d 1dbd
00000090: 42f7 133d 50f7 253d ebfd 34bc e853 d33b
000000a0: 19c9 ec3c 101b 883d 050f 733d 2887 443d
000000b0: 1e4e ac3c a315 573c 6448 e2ba 89a2 edbc
000000c0: 04c9 0e3d d4e1 90b9 a0f4 253c 1d9f dbbc
000000d0: 4bb9 94bd 764a 8fbd a3c3 6bbd a388 083b
000000e0: c5bb 63bd fdd9 85bc 1d7d f4bc e26e d13c
000000f0: 8445 d1bc 51d9 94bc 25c3 2abd 08f3 eb3a
00000100: 1cdf 70bc 4337 c93c f1a2 5bbd e884 173d
00000110: c5c2 1fbd b70a 30bd 2499 16bc 17e3 53bc
00000120: c79d 2f3d c0f2 013d 0020 d53c 10a5 9cbc
00000130: 7c14 bdbc bca8 38bd de2f 003c 5d65 27bd
00000140: e81d 283d d510 11bd d46e 4cbd d295 9b3c
00000150: cbe1 2ebc f339 8cbb 9c2b bdbc a2de 78bd
00000160: 7736 3dbd 636e 8ebd d810 25bb c032 4fbd
00000170: e8a2 77bd 2893 76bc dd10 9dbc a19c dcbd
00000180: 53df 5ebd 1245 a5bd 1d3c 55bd 91bf 4bbc
00000190: 24df 9bbd c6b8 6d3c b930 2e3d 4bd2 a13c
000001a0: f339 a5bc 77dc cabc b961 9fbb 3867 173d
000001b0: 3a8c 12bd 5934 ad3c 755b 28bc bdc0 783d
000001c0: 1aee 643d d909 84ba 8472 4d3c da33 39bd
000001d0: a341 9cbd 9d80 74bd 9480 e5bc 6d5c 32bd
000001e0: 224c ccbb 73b5 8ebc 26b9 06bc 9c65 eb3c
000001f0: bdeb e2bb 7164 ef3a b302 273b 1dd6 6dbd
00000200: 5cb7 d23c f9e4 2ebd 39dd 0c3b 5450 ca3c
00000210: bf68 223d a58e c03b 43fe 9e3b b6f7 7a3d
00000220: e65a 873d 2f46 6d3d d77a ba3d d04c 15bc
00000230: 428f 803d ef20 623b 6067 94b9 60ff 173d
00000240: c59f 463d aa71 30bc 5472 fcbc fa45 28bd
00000250: ca96 5ebd 91cc 0c3b ac60 cdbd ae76 bfbc
00000260: 2fd7 113c 1b0d fbbc 9b21 92ba 1a3f 17bc
00000270: 89fc 3fbc 1e87 343d 0237 1c3d 6b25 8bbd
00000280: df30 4e3d 1069 6ebd 83b5 01bd 89c0 1cbd
00000290: e000 043d e168 d83c 9ff6 143d 0659 8e3c
000002a0: 7883 00bc dd52 d6bc 309b 5c3c 488c 483d
000002b0: b9c8 963d a121 c1bb 5622 2fbd 1059 a8bc
000002c0: 91b0 b1bc 488e 88bd 2704 03bd 2fd3 ddbc
000002d0: 4c0c 1fbd 664c 0538 052d 00bd 2ea2 c1bc
000002e0: 9e88 41bd 6df2 ed3c b575 c63a fa4e 823c
000002f0: 67e4 a53b b53c fd3b fe3b 52bd 9ec4 69bd
00000300: ff93 15bd 2a3b 963d 6226 97bc e482 37bc
00000310: 34ef b7bc bae1 e43c e355 02bc f0a5 02bd
00000320: ec3f 54bd e9f1 7abd c2f6 713a 3c6d 053d
00000330: 299b 5a3c c03c b13c d992 04bc f73a 7bbd
00000340: 4034 10bd f85a 183d 43e9 2f3d ab29 513a
00000350: 26aa cb3c f168 243b b63e 0fbd 1460 02bd
00000360: 75b1 89bb 43a7 96bd d3c4 abbd e537 1abd
00000370: bcda 473d 4093 803c 473e e638 41b1 92bd
00000380: a734 95bd c73f abbd a910 dbbb 74c4 b93c
00000390: 0b74 4bbb 15d7 083b 8a64 01bc e8dd c73c
000003a0: 7a4d 3e3d ca83 67bd bab7 b43c 58fa 1bbd
000003b0: e123 babb 3ddb 58bd cb3f 8ebd 4e61 28bd
000003c0: a230 d6bc 93bd d7bc 2922 46bc 0cd8 87bd
000003d0: a952 97bd 18bc aa3c aa25 9abd 9a87 a6bc
000003e0: 51af 05bd 96f1 063c cf65 b9bc 9e5e 033d
000003f0: 4b99 fdbb ce89 b13b 98b4 913d f0c7 a5bc
0.07306743 0.022391887 -0.022280138 -0.07563771 -0.006415533 0.06098083 0.009659719 -0.040970325
-0.008225834 -0.018598257 -0.05711263 -0.016016383 -0.037789926 -0.054103058 -0.019194625 -0.05795362
0.03244213 0.024412272 0.032551542 0.02044012 -0.025188057 -0.032350827 -0.01716568 -0.03377554
-0.025797373 -0.024922363 0.0012071795 -0.031042073 -0.017120937 -0.009866714 0.019011294 0.058360517
0.03237311 0.043833546 -0.07075118 -0.038434606 0.036124475 0.04051906 -0.011046867 0.0064492114
0.028904485 0.06645787 0.059340496 0.047980458 0.021033343 0.013127717 -0.0017264006 -0.029008167
0.034859672 -0.00027634075 0.010129124 -0.02680927 -0.07261904 -0.06996624 -0.05755962 0.0020833395
-0.055598993 -0.016339296 -0.029844815 0.025565568 -0.025545843 -0.01817003 -0.04169001 0.0018001506
-0.014701631 0.024562484 -0.05362219 0.036991984 -0.039004106 -0.04297897 -0.009191785 -0.01293256
0.042875078 0.031725645 0.026016235 -0.019121677 -0.023081057 -0.045082793 0.007823912 -0.040868152
0.041044146 -0.035416443 -0.04991038 0.018992338 -0.01067395 -0.004279369 -0.023092084 -0.060759194
-0.04619452 -0.06954648 -0.0025187042 -0.05058551 -0.060458094 -0.015049733 -0.01917308 -0.10772062
-0.054412197 -0.08069815 -0.05205928 -0.01243581 -0.0761092 0.014509385 0.042526934 0.019753596
-0.020169234 -0.024763329 -0.0048639444 0.03696367 -0.03577826 0.021143125 -0.010275711 0.060730685
0.055891134 -0.0010073736 0.01253951 -0.045215465 -0.07629707 -0.059692968 -0.028015412 -0.043545175
-0.0062346617 -0.017420506 -0.008222854 0.028734975 -0.006925075 0.0018264187 0.0025483787 -0.058065522
0.025722198 -0.042698834 0.0021494164 0.024696507 0.039650675 0.0058763796 0.0048520877 0.06127139
0.066091344 0.05792826 0.09105461 -0.009112552 0.06277324 0.0034504493 -0.0002830578 0.03710878
0.04849221 -0.010769287 -0.030816235 -0.04108236 -0.054343022 0.0021484236 -0.10028204 -0.02337202
0.008901401 -0.030645898 -0.0011148931 -0.009231353 -0.011717924 0.04407417 0.038138397 -0.06794246
0.050339576 -0.058205664 -0.031667244 -0.038269553 0.032227397 0.026417198 0.03636801 0.017376434
-0.007843845 -0.02616256 0.013464734 0.048961908 0.073625036 -0.0058939015 -0.042757355 -0.02055028
-0.021690639 -0.06667763 -0.03198638 -0.02707824 -0.038830087 3.1780823e-05 -0.031292934 -0.023636904
-0.04724943 0.029046262 0.0015141281 0.0159068 0.005062628 0.007728184 -0.051326744 -0.057072274
-0.036518093 0.073355034 -0.01845092 -0.01120064 -0.022452928 0.027939666 -0.007955047 -0.03189653
-0.051818773 -0.06126586 0.000923019 0.032574877 0.013342657 0.021635413 -0.008091652 -0.06133553
-0.03520608 0.03719613 0.042947065 0.00079789263 0.024861407 0.0025086964 -0.034971915 -0.03182991
-0.0042020627 -0.073561214 -0.083871506 -0.03765096 0.048792586 0.015695214 0.00010978855 -0.07162715
-0.07285433 -0.08361774 -0.0066853357 0.022676684 -0.0031044509 0.0020880152 -0.007897506 0.024397805
0.046460606 -0.05652217 0.022060264 -0.038080543 -0.0056805466 -0.052943457 -0.06945761 -0.041108422
-0.026146237 -0.026335513 -0.012093105 -0.066330045 -0.07388813 0.020841643 -0.07526715 -0.020328332
-0.032637898 0.0082363095 -0.022631554 0.032072656 -0.007739221 0.005418039 0.07114524 -0.02023694

fc1.bias f4 [120]
00000000: 0795 673d 4d49 dbbc a4d2 d4bc 574d 70bd
00000010: a554 36bd 33d0 6d3d 451f f13d 9ad6 1abe
00000020: 6d4b cfbd 9977 72bd 0232 cf3a 255a 86bd
00000030: 08bd 2fbe 7a32 00bd 2b05 01bd 0075 443c
00000040: 7c57 af3d 2a8f 71bc fc03 8e3c ea2a 953d
00000050: 7fa1 29bd b5bb 38bc c3d6 42bd 2bcb 31bd
00000060: 5f58 dcbc e0b5 6cbc 77da 303e 8643 a5bd
00000070: 8d4f a33c d3a1 a43d bee7 133e 6bf9 553d
00000080: ac8d 93bc f9da 473e bc80 803c a9f8 47bd
00000090: 8a9d 683d 0b6d 66bc e937 8c3a 9c3d 8abd
000000a0: bcb7 5dbc 5273 37be 37cd 673d 8e4f a2bc
000000b0: a640 5b3e ca88 c23d 139d 333d 557c 01be
000000c0: c11b 1b3d 76f2 3abd c668 8f3c 72d4 04bc
000000d0: 086b eabb 6e3e a63d 9b6a 403e 9012 233e
000000e0: 1492 403c f0ec 80bc 444d 6ebc 56cf af3d
000000f0: 8a19 573d 9492 afbc 9f92 eebc a3df 3f3d
00000100: d3ec 623d 6517 efb9 cb3c 7b3a fbda d93d
00000110: 5d4a 973c 37d7 54ba 6a91 61bd 5f24 6dbd
00000120: c05e c83c cc79 7a3d c45d b53d 769c 4f3d
00000130: 9299 0f3d 7de6 b83d 40e0 dabb 7b79 d53d
00000140: 5ba2 bab9 39d5 fbba b4bf d8bc 6cc6 193e
00000150: a5cb e63d e2a1 febd 0d79 04bd f9b9 153d
00000160: b705 0dbd 3712 0bbe f0fa 45bd fcb8 853e
00000170: ac75 f63d 4ba1 cc3b 347c 4e3d ecca 333e
00000180: 48c0 0bbd f814 1ebd 016f 543c 656a 2b3d
00000190: dfbe f73d 5738 f5bc 47f6 723d 245f 073e
000001a0: 4f6d 203e b09c d23d 33aa 52bd 508c 2cbd
000001b0: c124 b2bd cc3c 363d cae1 52bd d827 51bd
000001c0: 90bc 7c3c f9ae 793c b6b9 0fbe 9824 9ebd
000001d0: dff7 3b3d 065c 0a3d 4544 aabc cd85 153c
0.056538608 -0.026768351 -0.025979348 -0.058667507 -0.044514317 0.058059882 0.11773542 -0.15120926
-0.10121808 -0.05919609 0.001580775 -0.065601625 -0.17161953 -0.03129814 -0.03149907 0.011990786
0.08561608 -0.014743606 0.017335884 0.07283576 -0.04141378 -0.011275222 -0.047568094 -0.043406647
-0.026897607 -0.014447659 0.17270838 -0.0806952 0.019935394 0.08038678 0.14443871 0.052239817
-0.01801189 0.19517125 0.015686385 -0.048821125 0.056790866 -0.014064084 0.0010697815 -0.06750032
-0.013532575 -0.17915085 0.056592193 -0.019813325 0.2141138 0.09498747 0.04385097 -0.12645085
0.037868265 -0.045641385 0.017506015 -0.008107292 -0.0071538724 0.08117376 0.18790667 0.1592505
0.011753578 -0.01573798 -0.014544789 0.08584468 0.05251459 -0.021432199 -0.029122649 0.046844136
0.055401634 -0.00045603063 0.0009583949 0.1063747 0.018468076 -0.0008119228 -0.05507032 -0.057896014
0.024459243 0.06115131 0.08855775 0.050686322 0.035058565 0.09028337 -0.0066795647 0.10423561
-0.0003559765 -0.0019213326 -0.026458599 0.15017098 0.11269311 -0.124332204 -0.032342006 0.03655431
-0.03442928 -0.13581167 -0.048335016 0.26117694 0.12034163 0.0062448136 0.050411418 0.17557877
-0.03411892 -0.038594216 0.0129659185 0.041849513 0.12096953 -0.029934091 0.0593169 0.13219887
0.15666698 0.10283792 -0.051431846 -0.042126 -0.086984165 0.044491574 -0.05148486 -0.05106339
0.015425816 0.015239471 -0.14035687 -0.077218235 0.045890685 0.033779167 -0.020784507 0.009126139

fc2.weight f4 [84, 120]
00000000: 2766 0d3e e922 133d fe1b 81bd b91d 22bc
00000010: 3f0d 93bd 3267 10bd 0480 903d 0d65 5b3c
00000020: 36eb 9ebc c9d7 a1bc 246d 473c 205e a83c
00000030: 8ea6 053e 364a adbd 077c 1f3d 8adf f8bc
00000040: ab11 b03c 793b 403d 24e1 9b3d 9f74 5dbc
00000050: 9952 d63c 53b3 5abd 0a61 4cbd 99dc 373d
00000060: 09c0 7ebd 1e08 cbbc 7d99 babd 47c8 85bb
00000070: fa83 0cbd 099b 63bc d490 483c b8a4 fb3d
00000080: db4e 48bc 3521 79bd 5b84 b8bd 1c81 d43c
00000090: 3e26 8abd 4a69 713d 3211 95bd 3d85 2ebb
000000a0: 46b8 c33d 79e3 c23d 66ff c63d 1686 9e3d
000000b0: 019a 313d 6bb6 27bd 8bac c4bd 34e0 cc3d
000000c0: aad5 da3b f91c 693d d1ff 9b3d 6c78 aebd
000000d0: 3373 4d3d e690 873c 3b56 80bc f2ec 2cbd
000000e0: 7c2e 9db7 e681 e23c 617e 8abd 7bba 9ebd
000000f0: 09a6 9fbb 7a00 313d f2ab c2bd 37af 23bd
00000100: 10fa fdbd 1495 bd3c 3d40 7c3c 1b5d ffbd
00000110: 53c0 19be 276f 2abd c48c 24bd a217 d1bc
00000120: 32ba 3cbd 3356 5fbc 3cc9 523d 92f6 1c3d
00000130: a091 453d 49d9 723d b1fc 633d 0248 40bc
00000140: 4f6f 2c3b 6843 96bd 04cf 0d3d db9d 9cbd
00000150: 827b c43b 13e9 a5bc 70e2 ce3d 8aaa 17bd
00000160: f111 0cbd fc1f c53d a709 4ebd e41b 363c
00000170: 4d6f 193c 5d3f abbd 02a5 853d 7346 a8bd
00000180: 5060 98bd 7e01 6f3d 7483 e23d 2c6d 963d
00000190: 08b5 3a3d fb7b 08bd bcf4 a3bd 4266 833d
000001a0: bd46 a03d 67e9 ddbd 01ac a8bc 486a 023e
000001b0: 899f e33d 6af9 9fbd d246 8fbd 37ca 403d
000001c0: 3fed 5c3c fd58 113d d7df 99bd 8251 46bd
000001d0: da4c 793c 273b 093c 3416 14bd ddd3 b53d
000001e0: 465f 12bc 3d87 d53c 9fa4 82bd 77e8 d2bc
000001f0: bf11 2b3d bcd2 75bc 684e d53c b49a 52bd
00000200: b385 0dbd 4585 133d e2c3 9ebd e468 903d
00000210: 651e 67bd 60f0 443d c8bf 8b3d 4d4e d2bb
00000220: 37ad 71bd 8611 b83c 6b8d 46bc 1674 f3bd
00000230: 0eb7 84bb 2283 abbd 1fc3 ec3c 2c5e 4bbd
00000240: a75a aabd b7b6 423d 643e 0ebc 3bbe 9dbd
00000250: cf27 98bd 598f 23bc 1d8d 57bd c9ce 783d
00000260: 7850 a43d cef6 09bd eafb d33d 7426 2e3d
00000270: 7bbc 513d efaf 6f3d 2dfa 5ebc a423 3bbb
00000280: 689b 02bc d544 b93c 8b7a c2bc 5452 763d
00000290: 5bbb e7bd 7cd9 27bd 7545 6abc 5e03 173d
000002a0: b1fd 123d 9107 473d ca22 7abc f424 993d
000002b0: 93c1 11bd fe70 5b3d 5fb0 96bb d075 c13d
000002c0: 8fc1 dbbc d270 553d 3624 1abc 9ff3 b13d
000002d0: 6e8a 8d3d 0d6d be3d 3fff abbd 76e6 d03d
000002e0: 8843 b3bd 56f4 89bc 7fe3 febd e0cb 26bd
000002f0: a8d7 a33b 5392 a73d c95e 41bc 99cd 0bbb
00000300: c988 7e3d 9310 913b fda2 1a3d 9d65 0e3c
00000310: 5d63 023e 7278 233d 0f16 fc3d 90c3 a0bd
00000320: 1f6d 5d3b d598 d83d a53e 36ba 4cd0 62bd
00000330: bf52 ac3c df8b 61bd 0db8 913d fa99 673d
00000340: 9a69 c93d 0fdd c2bd 12e6 3a3d d75e 52bd
00000350: d1a0 863d 9423 57bc 6867 1d3d babc 353b
00000360: 6a09 c03d 1ebb 913c 0af3 3d3c f78d 543d
00000370: a292 b0bd 5b68 8e3d 4782 a3ba 728a e23d
00000380: e966 383d b070 103d 6f44 20bb 7f88 a0bd
00000390: 6588 7dbd 1736 86bd 09ad 403d 94b4 1b3d
000003a0: 9bfd 663c e935 e3bd b067 d43b c1db f93d
000003b0: 78d2 253c 23b3 b33b 7745 57bd 5ccc 7c3d
000003c0: fe15 13bd ea53 03bd 767b 853c 6b60 7abd
000003d0: b0f0 54bc 221c 43bd dd89 243d c1ca f1bc
000003e0: 7389 b5bd e029 163d 3617 a43c 3a1e 873d
000003f0: 2097 71bd f2e3 93bd a40c ed3c 2506 d7bc
0.138085 0.035921965 -0.06304167 -0.009894782 -0.07180261 -0.035254665 0.07055667 0.013390792
-0.019399267 -0.019756215 0.012172017 0.020552695 0.13051817 -0.0846142 0.03893664 -0.03038003
0.0214928 0.046931718 0.076113015 -0.013516574 0.026162433 -0.053393673 -0.04989723 0.044888113
-0.062194858 -0.024784144 -0.09111307 -0.004082713 -0.03430555 -0.013891944 0.012241561 0.12287277
-0.012225832 -0.060822684 -0.0900962 0.02594047 -0.06745575 0.058938302 -0.0727867 -0.002662971
0.09556632 0.09516043 0.09716682 0.077404186 0.04335976 -0.04094545 -0.096032225 0.10003701
0.006678303 0.056912396 0.076171525 -0.085190624 0.05015869 0.016548585 -0.015666118 -0.042218156
-1.8737504e-05 0.027649831 -0.06762386 -0.07750412 -0.004872088 0.043213345 -0.09505452 -0.03996202
-0.12401211 0.023142375 0.015396175 -0.1246893 -0.15014772 -0.04160991 -0.040173307 -0.025523964
-0.046076007 -0.013631391 0.051461443 0.038321085 0.048234582 0.05928925 0.055660907 -0.011735918
0.0026311462 -0.073370755 0.034621254 -0.07647296 0.0059961686 -0.02025274 0.10101783 -0.037027873
-0.034196798 0.09625241 -0.050302174 0.011115048 0.009364915 -0.08361695 0.06525613 -0.08216562
-0.07440245 0.058351032 0.11060229 0.07345042 0.0455828 -0.033321362 -0.08005664 0.064159885
0.07825992 -0.108355336 -0.02058983 0.12735856 0.11114413 -0.07811244 -0.0699593 0.047067847
0.013484298 0.035485256 -0.07513397 -0.048417576 0.015216077 0.008375919 -0.036153987 0.088783
-0.008933848 0.026065463 -0.06379055 -0.025745614 0.04176497 -0.015003856 0.026038364 -0.051417068
-0.034551334 0.036015768 -0.077522054 0.07051256 -0.05642547 0.048080802 0.06823689 -0.0064180256
-0.05900308 0.022469293 -0.012118678 -0.11887376 -0.004050142 -0.08374621 0.028901635 -0.049650356
-0.08318072 0.04753753 -0.008681867 -0.07702299 -0.07429468 -0.009982907 -0.05262481 0.06074408
0.08023161 -0.033682637 0.10350783 0.04251714 0.05120514 0.058517393 -0.013609451 -0.002855518
-0.007971622 0.02261583 -0.023740074 0.060137108 -0.11315032 -0.040978894 -0.014298786 0.036868446
0.03588647 0.0485912 -0.015267083 0.074777514 -0.035584997 0.053574555 -0.004598662 0.09446299
-0.026825694 0.052109547 -0.009408047 0.08689045 0.06911169 0.092981435 -0.08398294 0.10200207
-0.08753115 -0.016840141 -0.12445735 -0.040721774 0.0050000735 0.08182206 -0.011802384 -0.0021332263
0.062142167 0.0044270246 0.037753094 0.008691219 0.12733217 0.039909787 0.12308895 -0.078498006
0.0033786965 0.105760254 -0.0006952084 -0.05537443 0.02103555 -0.055065032 0.07115183 0.056543328
0.09834595 -0.0951482 0.04562957 -0.051359978 0.06573642 -0.013131041 0.038428694 0.0027730898
0.093767956 0.01778942 0.01159359 0.0518932 -0.08621718 0.06953498 -0.0012474739 0.110615626
0.045020018 0.035263717 -0.0024454852 -0.078385346 -0.061897654 -0.065532856 0.04704002 0.03801401
0.01409855 -0.11094267 0.006482087 0.12200118 0.01012098 0.0054840012 -0.05255648 0.06171833
-0.035909645 -0.03206245 0.016294222 -0.061127108 -0.0129968375 -0.04763425 0.04017054 -0.029515626
-0.08864107 0.03666103 0.0200306 0.06597562 -0.058982015 -0.072212115 0.028936692 -0.026248047

fc2.bias f4 [84]
00000000: 238d 41be 05cc 3abd 4557 073e 4eb3 a1bc
00000010: d9e0 933e e57c 9d3e 1471 15bd 1fed 07bd
00000020: 0233 25be edaf 8bbd 447b acbb 8407 823e
00000030: 290e 83bd 808b f2bc 0240 043d 0b9d 293d
00000040: e1f6 7c3c 60fc b63d 5703 b5bd 732c 56be
00000050: 3566 63bd 8a05 a33e 70a2 aebd 8e9c bbbd
00000060: 330e 213c 0482 5b3e 4507 cdbc 6c1a 3e3d
00000070: 2e03 4c3e 7ab1 d5bc 00c2 b03e 4905 17bd
00000080: 06f3 de3d b716 143e 5ddc ed3b 714b 923e
00000090: 60e3 433d 0208 ee3c 82bd 2bbd 17ea c63d
000000a0: 555b 023d d33f 03bd 98d5 e23d 714e 973e
000000b0: 4301 a2bd cdf6 ad3d 51f3 053c ab05 42bd
000000c0: 93b9 1dbd da37 ed3d 0246 103e 5266 7fbd
000000d0: 8765 ca3e 1092 2a3e 1e22 8dbd 7b85 3dbe
000000e0: bfcf 813d 7ebf 89bc 17b2 58bd 0b07 c1bd
000000f0: 45e4 fcbc ee03 943d ec6c 0f3e dec7 b03e
00000100: 7e6c 3b3d 2d09 23bc 6687 e9bc b318 29bc
00000110: 4260 ef3d 7106 52bc af37 9cbd 11a6 6d3e
00000120: 8e29 0e3e 06b4 cebd b0f1 70bd 7fe2 1d3d
00000130: 4601 f5bd 6a6f f03d 1453 d83d 1ac5 c23d
00000140: 2791 fa3c 9f8c aa3e 0df5 57bd d58e 12bd
-0.18901496 -0.045604724 0.13216884 -0.01973882 0.28882483 0.3075935 -0.036484793 -0.03318512
-0.16132739 -0.068206646 -0.005263718 0.2539636 -0.06399185 -0.029607534 0.032287605 0.041409533
0.01543972 0.089348555 -0.08838528 -0.20915394 -0.055517394 0.31840163 -0.08527076 -0.0916072
0.0098300455 0.21436316 -0.02502788 0.046411917 0.19923088 -0.026085604 0.3452301 -0.036870275
0.10886197 0.1446179 0.0072589354 0.28573182 0.047824264 0.029056553 -0.041928776 0.09712618
0.031825382 -0.03204329 0.11075896 0.29552034 -0.07910397 0.08494339 0.008175687 -0.047368687
-0.038507055 0.115829185 0.14089206 -0.06235344 0.39530584 0.16657281 -0.06891273 -0.1850795
0.063384525 -0.016814943 -0.052904215 -0.094251715 -0.030870566 0.07227312 0.14006394 0.34527487
0.045757763 -0.009950918 -0.028506946 -0.01032083 0.116882816 -0.012818919 -0.07627808 0.2320788
0.1388304 -0.100929305 -0.05882424 0.03854608 -0.119631335 0.117400005 0.10562721 0.095102504
0.030586792 0.3331041 -0.052723933 -0.035780746

fc3.weight f4 [10, 84]
00000000: 4c6a 8fbc 13d8 d83d 7719 0b3d 35ac 963d
00000010: fedb 94bd b85a 95be 5d9b 03be 4351 73bc
00000020: deff 1e3d 09fd dbbc 3685 dcbc 99a0 ef3d
00000030: fe3f 0e3e ee18 d1bd 341d 9bbd 7999 b0bb
00000040: e2e5 4fbd 2082 9d3d 95cf 75bd b96d a93d
00000050: 811a 02bc a8e0 983e 61c9 2bba bc4d d03d
00000060: bc1b 113e 607a 2ebd 5b6d 503d 1c95 c13d
00000070: bd64 b8bd 9384 7a3e 7bc6 ae3e 7f8f 383e
00000080: bc71 b9bd 7326 8abd 1674 f9bd e6c9 693e
00000090: 4175 b5bd a063 10bd 965d 98bd 6a5b 4dbe
000000a0: b8b7 1f3e 2800 be3c f69b 633e 7953 a6bd
000000b0: 3c0b 973c 63fa 51bc 07a9 4f3e 7edd 6a3d
000000c0: 4486 773d c5e2 cbbd b210 abbc d6b4 cf3d
000000d0: a576 92be b766 d5bd e63a a8bd edd8 763d
000000e0: 6118 56bd 157e 43bd 410b 5e3e 8b46 5bbc
000000f0: 6999 9b3c 9db0 9fbc 6d2b b23e 9bcf dcbe
00000100: 4a8d 513d 3402 fbbc c717 363d ddd8 733d
00000110: d080 11bd b446 f13d 9e87 d6bd 4847 4f3d
00000120: f8eb 96bd 99eb 02be 3d75 c73a 323d 28bd
00000130: bb5e be3d d70f 223d b37b 5dbe cf57 a93e
00000140: e4bf 2ebe 46d5 ccbc 43df 9abd b3b6 1c3d
00000150: 5bd1 4b3e 5a16 5f3d a439 a3bd 10fc 12be
00000160: b79f 9fbe e3e2 21be 637d 8ebb b775 2c3e
00000170: 7af8 1f3e 0976 e53d 07e7 873e 1131 ff3c
00000180: 935c 443e d408 4a3c 7910 dbbc 7bbe e83d
00000190: d2a4 b33d dd54 653c 129d 303e 23ec 0b3d
000001a0: 65c7 b0bd ea53 f1bd 8e49 783c b7d4 783d
000001b0: 7a23 85bd 46d2 bebc b991 853d 6824 af3d
000001c0: b9d0 91bc 96e3 a73d 3c2e 88be c60b 13be
000001d0: 8483 763c 959f ffbd bb27 543e 044d 24be
000001e0: 23aa cebd 2fe3 333e 3019 683d 67fa 08be
000001f0: dc74 d33d 16e0 943e f4a3 efbc 17cf a8be
00000200: 265d 4e3e 0676 ae3c 9ddb aa3e afe6 4ebd
00000210: 6a42 a6bd 85d3 cfbc 1162 56be a0bf d6bd
00000220: fec9 c9be b12b 9dbe 3eb8 113d cbf8 4d3e
00000230: 9139 f43d 1bc9 2b3d 746d 8cbc b4cb a33d
00000240: 130f 78bd affa 963d 1095 243e 8da2 d5bd
00000250: e402 93bd 3a46 f73d 2c91 0dbe 1a76 77bd
00000260: 7083 4ebe 369d 57bd e8b7 cb3c 34cd 36be
00000270: 28dd 96bc 4bb7 743e 9479 8dbd 525e c73d
00000280: a0b9 133b 2dc1 c03d bd1c b5bd 1c67 6e3e
00000290: 1473 003d c666 b43c f1e1 57bd e711 cf3d
000002a0: 1df1 2ebe 2c15 293d f87b 42bd f72c 8b3c
000002b0: eadf e03d def0 343c 1ba6 223e 04e2 d2bd
000002c0: 2543 183d a6cc f1bd e696 723d e5ab 2f3e
000002d0: 0163 7a3d eb3f 843b fea0 433d 97ff d33d
000002e0: ea70 a33d 050c 20bd 976b 113c 8cb1 d3bd
000002f0: 0a14 f23d 9b7b 143e 3f41 90be 1e9d 623d
00000300: e3a5 cbbd 0af5 fc3d d052 61bd f0e0 8d3d
00000310: eca7 fcbc 9a7b 64bd bf7d 963e 68bb 693d
00000320: 4ecb de3d da49 123e 359a f4bd 9f30 ba3c
00000330: dadd 5fbd 4f66 c5bc ff8e ce3c 1350 e03d
00000340: 0c14 4abe 26fb 35be 6752 6a3d 15d6 433d
00000350: 154d fbbd d91a 8ebd 34bb afbd d6c5 1f3b
00000360: faf1 213e 4f8b 8dbd 6928 27be 7988 d0bd
00000370: a59c 973e 94f4 4f3e 0274 273c cc6a 07be
00000380: 69c4 01bc 844e 28bd c8d5 a03d 771d af3c
00000390: ede8 acbb aeb7 5a3e e723 1fbd badf 163e
000003a0: 01b6 cebd 2828 d9bd d92a 8c3e 3905 a9bd
000003b0: b2b0 a9bd f923 71bd d150 8b3b 3793 2a3e
000003c0: 5721 c4bb 72fd 063e f497 80bc 6f01 87bd
000003d0: 4b92 c1bc eeaa 1ebe b2c8 3dbd bfb0 dd3d
000003e0: 439b 243e 705e a93c cbab aa3c dabf 093e
000003f0: 7d86 1fbe 41bd 8fbd 2f2e 303e b00c 88bd
-0.017506741 0.10588088 0.033959832 0.07357065 -0.07268523 -0.29170775 -0.12852235 -0.014850917
0.038818233 -0.026854055 -0.026918989 0.117005534 0.13891599 -0.10209833 -0.075739294 -0.005389389
-0.050756343 0.07690835 -0.06001242 0.08272881 -0.007940889 0.298589 -0.000655314 0.10171077
0.14170736 -0.042597175 0.05088554 0.094522685 -0.09003589 0.24464636 0.34135804 0.1802349
-0.09054896 -0.06745615 -0.12180345 0.22830924 -0.08860255 -0.03525126 -0.07439725 -0.20054403
0.15597427 0.023193434 0.22227463 -0.0812139 0.018437974 -0.0128160445 0.20279323 0.057340138
0.06043078 -0.09955362 -0.020881984 0.101419136 -0.28606144 -0.10419982 -0.08214359 0.06026547
-0.052269343 -0.047727663 0.2168398 -0.013383518 0.01899405 -0.019493395 0.34798756 -0.4312714
0.051160134 -0.030640699 0.04445627 0.05953299 -0.035523236 0.11781064 -0.10475086 0.05060509
-0.07369226 -0.12785186 0.0015217435 -0.041073985 0.09295412 0.039565887 -0.21629219 0.33074805
-0.17065388 -0.02500404 -0.07562115 0.038260173 0.19904082 0.054464675 -0.079699785 -0.14353967
-0.3117654 -0.15809207 -0.0043484434 0.1684178 0.1562213 0.11204154 0.26543447 0.031151326
0.1917594 0.012331206 -0.026741253 0.11364456 0.08771671 0.013997284 0.17247418 0.034160744
-0.086317815 -0.117835835 0.015154256 0.060749736 -0.06500907 -0.023293626 0.06521935 0.08551866
-0.017799722 0.081977054 -0.26597774 -0.1435996 0.015046004 -0.1248161 0.20718281 -0.16045004
-0.10091045 0.17567132 0.056664646 -0.13376771 0.103250235 0.29077214 -0.029252984 -0.32970497
0.20152721 0.021296512 0.33370677 -0.050512966 -0.08118136 -0.025369415 -0.20935847 -0.10485768
-0.3941192 -0.30697396 0.035576098 0.20114438 0.119250424 0.041939836 -0.017142035 0.07997838
-0.06056125 0.07372033 0.16072488 -0.10431395 -0.07178286 0.120739415 -0.1382491 -0.060415365
-0.20167327 -0.052640162 0.024867967 -0.17851716 -0.018416002 0.23898046 -0.06907955 0.09734787
0.002254106 0.09411845 -0.08843372 0.2328152 0.031359747 0.022021662 -0.05270571 0.101108365
-0.17084165 0.041279957 -0.047481507 0.016989214 0.10980208 0.011043755 0.15883677 -0.10297015
0.03717341 -0.11806612 0.05922594 0.17155416 0.061129574 0.00403594 0.047760956 0.10351484
0.07980521 -0.039073963 0.008875749 -0.10336599 0.118202284 0.14500277 -0.2817478 0.05532562
-0.0994375 0.12351425 -0.055010617 0.06927669 -0.03084179 -0.055781938 0.29392812 0.05706349
0.10878621 0.14285985 -0.11943475 0.022728262 -0.054654934 -0.024096636 0.02521467 0.10952773
-0.1973421 -0.17771587 0.05720749 0.047811586 -0.122705616 -0.069387145 -0.08580628 0.0024379394
0.15814963 -0.06911337 -0.16324009 -0.1018228 0.29611698 0.20308143 0.0102205295 -0.13224334
-0.007920363 -0.041090503 0.078532755 0.021376355 -0.0052767904 0.2135913 -0.0388526 0.14733782
-0.10093308 -0.10603362 0.2737644 -0.08252949 -0.08285655 -0.058872197 0.0042515774 0.1665772
-0.0059854197 0.13182619 -0.015697457 -0.0659207 -0.023629328 -0.15494892 -0.046333976 0.10824727
0.16074853 0.020674914 0.02083387 0.13452092 -0.15578647 -0.07018519 0.17205118 -0.06643045

fc3.bias f4 [10]
00000000: d56e a3bd 9b89 26bf ceb1 333e 2c11 993e
00000010: f3bb 063f 8dc3 19be f5fd 9f3d 7e11 9dbe
00000020: 084e b93e 798a a7be
-0.07980124 -0.6505372 0.17548296 0.29895914 0.5263054 -0.15016003 0.0781211 -0.30677408
0.36192346 -0.32722834
